Date: 15.12.2016
Number of classes: 5
Epoch time: 550s ~ 9 min
Accuracy: 58.97%
alligator: 2.07%     6/290
antelope: 75.11%     169/225
bat: 34.73%     91/262
bear: 41.79%     145/347
bison: 53.68%     175/326
TOTAL: 40.41%     586/1450

Model: 
____________________________________________________________________________________________________
Layer (type)                     Output Shape          Param #     Connected to                     
====================================================================================================
convolution2d_1 (Convolution2D)  (None, 32, 64, 64)    896         convolution2d_input_1[0][0]      
____________________________________________________________________________________________________
dropout_1 (Dropout)              (None, 32, 64, 64)    0           convolution2d_1[0][0]            
____________________________________________________________________________________________________
convolution2d_2 (Convolution2D)  (None, 32, 64, 64)    9248        dropout_1[0][0]                  
____________________________________________________________________________________________________
maxpooling2d_1 (MaxPooling2D)    (None, 32, 32, 32)    0           convolution2d_2[0][0]            
____________________________________________________________________________________________________
convolution2d_3 (Convolution2D)  (None, 64, 32, 32)    18496       maxpooling2d_1[0][0]             
____________________________________________________________________________________________________
dropout_2 (Dropout)              (None, 64, 32, 32)    0           convolution2d_3[0][0]            
____________________________________________________________________________________________________
convolution2d_4 (Convolution2D)  (None, 64, 32, 32)    36928       dropout_2[0][0]                  
____________________________________________________________________________________________________
maxpooling2d_2 (MaxPooling2D)    (None, 64, 16, 16)    0           convolution2d_4[0][0]            
____________________________________________________________________________________________________
convolution2d_5 (Convolution2D)  (None, 128, 16, 16)   73856       maxpooling2d_2[0][0]             
____________________________________________________________________________________________________
dropout_3 (Dropout)              (None, 128, 16, 16)   0           convolution2d_5[0][0]            
____________________________________________________________________________________________________
convolution2d_6 (Convolution2D)  (None, 128, 16, 16)   147584      dropout_3[0][0]                  
____________________________________________________________________________________________________
maxpooling2d_3 (MaxPooling2D)    (None, 128, 8, 8)     0           convolution2d_6[0][0]            
____________________________________________________________________________________________________
flatten_1 (Flatten)              (None, 8192)          0           maxpooling2d_3[0][0]             
____________________________________________________________________________________________________
dropout_4 (Dropout)              (None, 8192)          0           flatten_1[0][0]                  
____________________________________________________________________________________________________
dense_1 (Dense)                  (None, 1024)          8389632     dropout_4[0][0]                  
____________________________________________________________________________________________________
dropout_5 (Dropout)              (None, 1024)          0           dense_1[0][0]                    
____________________________________________________________________________________________________
dense_2 (Dense)                  (None, 512)           524800      dropout_5[0][0]                  
____________________________________________________________________________________________________
dropout_6 (Dropout)              (None, 512)           0           dense_2[0][0]                    
____________________________________________________________________________________________________
dense_3 (Dense)                  (None, 5)             2565        dropout_6[0][0]                  
====================================================================================================
Total params: 9204005
____________________________________________________________________________________________________
None
Train on 5796 samples, validate on 1450 samples


Epoch 1/25
5796/5796 [==============================] - 745s - loss: 1.5853 - acc: 0.2619 - val_loss: 1.5337 - val_acc: 0.3283
…
