Date:  15.01.2017 08:38:59
Number of classes:  5

Add layers: Dense 256, Dropout 0.3

alligator: 58.70%     162/276
antelope: 71.54%     176/246
bat: 52.85%     139/263
bear: 62.54%     212/339
bison: 61.66%     201/326
TOTAL: 61.38%     890/1450

____________________________________________________________________________________________________
Layer (type)                     Output Shape          Param #     Connected to                     
====================================================================================================
convolution2d_1 (Convolution2D)  (None, 32, 64, 64)    896         convolution2d_input_1[0][0]      
____________________________________________________________________________________________________
dropout_1 (Dropout)              (None, 32, 64, 64)    0           convolution2d_1[0][0]            
____________________________________________________________________________________________________
convolution2d_2 (Convolution2D)  (None, 32, 64, 64)    9248        dropout_1[0][0]                  
____________________________________________________________________________________________________
maxpooling2d_1 (MaxPooling2D)    (None, 32, 32, 32)    0           convolution2d_2[0][0]            
____________________________________________________________________________________________________
flatten_1 (Flatten)              (None, 32768)         0           maxpooling2d_1[0][0]             
____________________________________________________________________________________________________
dense_1 (Dense)                  (None, 512)           16777728    flatten_1[0][0]                  
____________________________________________________________________________________________________
dropout_2 (Dropout)              (None, 512)           0           dense_1[0][0]                    
____________________________________________________________________________________________________
dense_2 (Dense)                  (None, 256)           131328      dropout_2[0][0]                  
____________________________________________________________________________________________________
dropout_3 (Dropout)              (None, 256)           0           dense_2[0][0]                    
____________________________________________________________________________________________________
dense_3 (Dense)                  (None, 5)             1285        dropout_3[0][0]                  
====================================================================================================
Total params: 16920485
____________________________________________________________________________________________________
None
Train on 5796 samples, validate on 1450 samples
Epoch 1/25
377s - loss: 1.5488 - acc: 0.3087 - val_loss: 1.4542 - val_acc: 0.3945
…
